STPN-main/spdpnUS.pth (torch, 479676 bytes, 64 tensors)

weight f4 [128, 119, 1, 1]
00000000: 56d4 78b6 8a14 e93b 014f 123c 687e 603c
00000010: 13ea 41bb cbd9 243c a018 edb8 722b 523d
00000020: 378b 2bbd 8fd3 5f3d 88e2 4abc 038a 323c
00000030: ed6e a6ba 45cb 153c e2d1 a63b 83b0 ff3c
00000040: bdf0 bd3b f32b 0137 e61a 233d eedc debc
00000050: cd94 003b 2a55 b3ba 293f b13c f44c 0bb9
00000060: 456b 45bb b7c5 223d 21cd acbc 084c 99bb
00000070: 2b45 243d 95f3 a6ba 33c5 c5ba 67c0 cc3a
00000080: e605 f73c a769 13bc c59d 8d36 4b67 50bd
00000090: 120b 143d 3487 abbc d144 583b 2bef 1ebd
000000a0: 2a62 ce39 f9a3 2b3d c955 b03b 64e0 1a3c
000000b0: c1d8 51ba eae5 26bd 094e d7bb 351a c839
000000c0: 85d5 7fba 21f5 20bd 142e 59bc 59c1 de36
000000d0: 4a8c 5cbd b02e 833b d184 bd3c a079 3d3a
000000e0: 07e8 bcbc f078 a0b8 528d c9bc fd54 c1bc
000000f0: 02f0 f13c bbbe 153c f202 23bd 22ee 923b
00000100: 88dc c4bc 9d58 8dbb 347e 6abd 07b8 303c
00000110: 91ca 0837 2f01 91bc 4506 083c 90dc c7b9
00000120: 5fec b23b 56c4 443d 4c80 e8b8 32ec 1ebd
00000130: 5aac 7ebc 2748 213d 3a42 04bc f33d c1bc
00000140: b92e 993b 9757 663c 36f1 19bc 472a 16bc
00000150: 0729 59bc 06e0 de36 8dd7 b9bc 4a94 2f3c
00000160: 329a 353c 5e8b 7a3a 2fc8 323d 42c5 cfb8
00000170: 5670 38bd b1d6 5abc f111 79bc 8c3d 22bc
00000180: 9dc9 64bc 124d 2e3c 247f 87bc 5b71 17bc
00000190: c29d 0b3d 5871 eabb 66e4 5a35 119c 603d
000001a0: d6a0 a13c 9381 c43c cf11 a53b 5b34 923c
000001b0: 9111 ddb8 729c 0d3d 93cb 8bbc d42a 8fbb
000001c0: 286c 6ebc 8cd3 363d 7b98 e0bb 0da3 85bc
000001d0: 8b67 4d3c 5733 e9bc 1f3b 713c 1a59 0b38
000001e0: ef77 26bb 48e5 33bd e704 073d 0d8b 053d
000001f0: a0ab 43bd 5fcf 07bc 1949 8ebd 3ddf 853d
00000200: b718 903d 6b73 2b3c e2fd 1bba 1d50 b03b
00000210: 13ba 86bd 8106 043d 24ae 4ebd 22f6 dcbb
00000220: 84f6 feb7 2086 82bc 95d9 143d b4ec 4bbd
00000230: 593d 9c3b 1ee6 663c 8d16 e3bb 940a fdbb
00000240: d021 c3bb e885 7e3d 5197 4f3c 263f 8f3d
00000250: 8dd6 e0bc 459e ecbc 4f37 a2bc ce83 13bc
00000260: f2d4 44bc def9 f4b7 483d 9cbd cfb0 263d
00000270: ec44 3c3d 2e39 2bbc d345 683c d770 5abb
00000280: bb28 2fbd ba3a ee3c 17cf a7bc cef0 d63c
00000290: cea7 85bd 0023 453d 51ad 833d 0669 fdbc
000002a0: 5c3b eb3a f46e 54bc faaa b736 aed4 053d
000002b0: 3605 863c d6da 2d3d 37ae 30bc 44de f83c
000002c0: 008a aa3b ee8b 2e3d d6d9 973d b8df 1d3d
000002d0: c0d2 30bb af7a 093c faaa 583c 50a2 04bc
000002e0: c5b8 23bd 2ca6 15bc 3c5b d3b9 d280 f037
000002f0: 2f2d 66bc 4f9c 303b 3c3f 193d a38e 56bc
00000300: c36a 97bc d254 063c 8d40 0d3b 5a8e 3dbd
00000310: 008c 5fbb 6c0d bdbc 048b 2bbd 6941 cfbc
00000320: 843a 973d b677 9cbb 6fbf 01bc cf39 9c3b
00000330: 7659 9537 f7b3 69bd 985f 553d fdce e9bb
00000340: a718 393c 7554 7fbc b788 26bc e03c 8cbc
00000350: 44b7 24bd 746e 283c d9ce 54bd afe1 823d
00000360: e096 af3c b9b9 883b 83ab 01bd d131 2ebd
00000370: 5528 443d 7f71 e7b7 f644 80bd b3eb 8b3c
00000380: 8522 a83b 240f c13c a295 9b3d 1611 013c
00000390: 2579 6abc 0171 2cbd 97ea 55bd 3d42 06bd
000003a0: f18c 7b3d cd1e 7d3a 9acd 1bbd 5da3 8c3b
000003b0: e1e8 97bd 0210 cdbb 5cdd ddbb b523 563d
000003c0: 7bce 35bd 8cf6 a83d 46cf 983c 2bde 62bd
000003d0: eb2f 363d 22c5 10bb 3e30 cdbd 2d9b 303d
000003e0: 1bfc a43d 66a0 24bd b7df 3cbd f92d 4fbd
000003f0: 6162 86bd e2d4 02bd 5bad 0cbc 81d9 10bc
-3.7078476e-06 0.007113044 0.008929969 0.013702013 -0.0029588982 0.0100616915 -0.000113056274 0.051310964
-0.041880812 0.054645117 -0.012383111 0.010897162 -0.0012697853 0.0091427015 0.005090938 0.031212097
0.0057965205 7.699232e-06 0.039820574 -0.027204957 0.0019619942 -0.0013681997 0.021636562 -0.0001328474
-0.0030123752 0.039739337 -0.021093907 -0.004678253 0.040105026 -0.0012737388 -0.0015088677 0.0015621305
0.03015418 -0.008997357 4.2204942e-06 -0.050879758 0.03614337 -0.020938493 0.0033000002 -0.038802307
0.0003936452 0.041904423 0.00538132 0.009452913 -0.0008005016 -0.040746607 -0.006570582 0.00038166498
-0.0009759295 -0.039296273 -0.013255615 6.638624e-06 -0.053844728 0.0040033683 0.02313462 0.00072279014
-0.023059858 -7.651921e-05 -0.02460352 -0.023600096 0.02953339 0.009139712 -0.03979773 0.004483954
-0.024030939 -0.004313542 -0.057249263 0.010786063 8.153395e-06 -0.01770076 0.008302276 -0.0003812057
0.0054603065 0.048038803 -0.00011086519 -0.038799472 -0.0155440215 0.03937545 -0.00807243 -0.02358911
0.004674759 0.014058969 -0.009395888 -0.009165353 -0.013254411 6.6421953e-06 -0.02268579 0.010716507
0.011084126 0.00095575105 0.04364794 -9.907271e-05 -0.045029007 -0.0133568505 -0.0152020315 -0.009902369
-0.013964084 0.010638492 -0.016540118 -0.009243335 0.034085996 -0.007154625 8.154369e-07 0.054836337
0.019730013 0.023987567 0.0050375233 0.01784723 -0.00010541373 0.034573026 -0.017064845 -0.004369119
-0.014552154 0.04463534 -0.0068541146 -0.0163131 0.012536894 -0.028466864 0.014723568 3.3223165e-05
-0.0025401076 -0.04391983 0.03296366 0.032603312 -0.047771096 -0.008289187 -0.06947536 0.0653672
0.07035964 0.0104645295 -0.0005950612 0.005380644 -0.065784596 0.032232765 -0.050459042 -0.0067432085
-3.0393952e-05 -0.015933096 0.036340315 -0.049786285 0.0047680554 0.01409295 -0.0069301785 -0.0077222083
-0.0059549585 0.06213942 0.012670354 0.069944665 -0.027446056 -0.028884063 -0.019801764 -0.009003593
-0.012013661 -2.920342e-05 -0.07628876 0.04069596 0.045964167 -0.010450644 0.014176804 -0.0033331418
-0.042763453 0.029080737 -0.02048449 0.026237871 -0.06526147 0.04812908 0.06429542 -0.030933868
0.0017946768 -0.012965906 5.4737293e-06 0.03267353 0.016359907 0.042445026 -0.010783724 0.030379422
0.005204439 0.042613916 0.07414596 0.038543433 -0.0026981086 0.008391066 0.013224358 -0.008095339
-0.03997113 -0.009133857 -0.0004031303 2.8670216e-05 -0.014048859 0.0026948636 0.03741382 -0.013095531
-0.018483525 0.008198934 0.0021553368 -0.046278335 -0.0034110546 -0.02307769 -0.041880623 -0.025299745
0.07384208 -0.004775013 -0.0079191765 0.0047676335 1.7803843e-05 -0.057056393 0.05209312 -0.0071352706
0.0112973815 -0.015584101 -0.010164431 -0.017118871 -0.04021384 0.01028024 -0.051955078 0.06390702
0.021434247 0.0041725305 -0.031657707 -0.042527977 0.047890026 -2.7590197e-05 -0.06263153 0.017080164
0.005131068 0.02356679 0.075968996 0.007877609 -0.01431111 -0.042099956 -0.052225675 -0.032778013
0.06141371 0.0009655774 -0.038037874 0.0042919354 -0.07417465 -0.006258012 -0.006770773 0.052280147
-0.04438637 0.0825015 0.018653523 -0.055387657 0.044479292 -0.0022090157 -0.10018967 0.043116737
0.08055898 -0.04019203 -0.04611179 -0.050580952 -0.06561733 -0.031941302 -0.008586253 -0.0088409195

bias f4 [128]
00000000: 560d a5b7 0e2b 1f36 514b 75bc b77f a33b
00000010: 2da5 fe37 7a08 2c39 d506 1eb9 7c90 f738
00000020: 0b08 cd39 94fb 98b5 91c1 9f37 de3b ee38
00000030: f7c8 883b b312 e9ba 63b8 2ebb dcc7 1339
00000040: 74a7 4cb8 51fa 22bc 3d9a cebb cec2 e7bb
00000050: 1229 2438 4a4c 1bbc 182f d33a 6f6d 89bb
00000060: 706b 8a39 d4e4 e639 e933 6a39 6026 b8ba
00000070: b74d c739 c4d7 e7b6 58e0 9cbb f0f4 72bb
00000080: 8d31 01bb 98c4 30ba 695b abb8 1694 943a
00000090: 9bb7 acbb 49f9 1bbc d285 94b9 8bea 3fbb
000000a0: 2a2b a4b6 d92c 2fb8 b58d 2fbc e6fc 19b8
000000b0: e11f 14b9 fca1 f8ba a60f 3237 626d 9139
000000c0: 1c6d 02b8 9482 5339 fe03 e1b8 c807 8e3b
000000d0: 2b79 29bb dd4a 183b 88f3 283a 6d50 2d38
000000e0: 6298 aa3a d138 e339 d9d1 04b5 433a 43bb
000000f0: 88e3 54b9 a10d 8a3b 173e 38bb 5b23 3a37
00000100: 8cb2 0bbc 9e7f 42bc 47ee abb8 77e9 88bb
00000110: c547 23bc 7e5f 23bb d899 2237 bfed 9b3a
00000120: bc5c 74b9 5016 e6b6 5340 0bb8 f4ff 79bb
00000130: d07c 6339 f2b5 5437 95a9 4b39 0098 2bb4
00000140: 5d33 8139 74e2 95b8 22f2 7f36 8fc9 43bb
00000150: dafa 143c 0532 de39 f6de 943b 78d5 2139
00000160: cca7 f139 50e9 10bc a6c1 a537 b8db ea36
00000170: 3e8c 1fbb 57d8 cc35 dd33 f137 d03d 8738
00000180: e8e1 b6b7 7687 77bc 0e83 5f3a af75 06bb
00000190: bc70 223b 58a1 54b9 4c0d d5b7 d1e9 7238
000001a0: 04da febb 86bf 4a39 6e8c 093a 3349 cdba
000001b0: 1af6 e7bb b5c5 35bb 983a f6b8 d0e6 5a3a
000001c0: 8b80 333b 4416 9136 b755 a537 6107 30bb
000001d0: eec9 9dbb 6a8e 0b38 38f0 983b de1e efba
000001e0: cb6a 30bc 0323 04b8 999f f2b6 f4e1 cdb7
000001f0: c4b6 4938 a4d1 93bb 0747 94bb aef8 b137
-1.9675743e-05 2.3717907e-06 -0.01497157 0.00498959 3.0356076e-05 0.00016406356 -0.000150706 0.0001180479
0.0003910664 -1.1398101e-06 1.9044413e-05 0.000113598755 0.0041743475 -0.0017782062 -0.0026660196 0.00014093466
-4.8793343e-05 -0.009947375 -0.0063050077 -0.007072783 3.9138897e-05 -0.009478638 0.0016112057 -0.0041939537
0.00026401458 0.0004403951 0.00022335317 -0.0014049523 0.0003801414 -6.909455e-06 -0.004787486 -0.0037072264
-0.0019713372 -0.0006743162 -8.170942e-05 0.0011335637 -0.005270911 -0.009519883 -0.00028328464 -0.0029284086
-4.892606e-06 -4.176502e-05 -0.010714938 -3.6713573e-05 -0.00014126256 -0.0018969174 1.061327e-05 0.00027738052
-3.109603e-05 0.00020171172 -0.0001072958 0.0043344237 -0.0025859575 0.0023237981 0.00064449804 4.1321317e-05
0.0013015384 0.00043339145 -4.94792e-07 -0.0029789365 -0.00020302658 0.0042130505 -0.002811318 1.1094696e-05
-0.008526456 -0.011871247 -8.198298e-05 -0.004178222 -0.009965842 -0.0024928744 9.691772e-06 0.0011896415
-0.000233042 -6.8571317e-06 -3.320009e-05 -0.0038146945 0.00021694903 1.2678547e-05 0.00019422763 -1.5980913e-07
0.00024643066 -7.147054e-05 3.81389e-06 -0.0029874777 0.009093011 0.00042380407 0.0045431806 0.0001543368
0.0004609212 -0.008844689 1.9759707e-05 6.999322e-06 -0.0024345065 1.5262148e-06 2.875359e-05 6.448815e-05
-2.1801286e-05 -0.01510798 0.00085263036 -0.0020516922 0.0024786433 -0.00020278001 -2.539777e-05 5.7915055e-05
-0.0077774543 0.00019335569 0.0005247061 -0.0015662074 -0.007078898 -0.002773625 -0.00011741108 0.0008350434
0.002738985 4.323929e-06 1.9709447e-05 -0.0026859867 -0.0048153317 3.3272816e-05 0.004667308 -0.0018243452
-0.010767649 -3.150386e-05 -7.2307416e-06 -2.4543122e-05 4.8092348e-05 -0.004511075 -0.0045250687 2.1215845e-05

weight f4 [4, 16]
00000000: 9ec5 6d3c 2a3e e5b9 c12f bf3b 032f 7dbb
00000010: ac95 e5b9 21b3 01b7 24eb a73b 8f8b 6bb6
00000020: 99c1 27bc 14bc b53c d0c6 74bc fe46 a4bc
00000030: baca d23c 74ed 7a3b eb11 f2ba e494 f0ba
00000040: 7b67 823b 87b2 fb3c 2744 f8bc fc86 4037
00000050: 0cf5 b3bc 8c84 c936 38ca 5735 08c3 68ba
00000060: 0aa9 6cbc 42cb f7bc 5693 a739 4a60 3c3a
00000070: cfda 463a 4af0 4bba 410c e03c 894d 3c3c
00000080: f5fa d83c d39c 073c 9644 2bbd 99bf fb3a
00000090: 3513 e437 9d9f 4337 53af d936 f865 8db9
000000a0: c141 dc39 d28f 2e3c d899 973a 56c5 4f3a
000000b0: e240 d339 cdfc ed39 6725 293a 0b71 c639
000000c0: db92 8ebb c832 133d 5681 1bbd 392c 0fbb
000000d0: a7a3 82bc 1092 10bd 90b9 b5bc f9b7 ad36
000000e0: cb1d 113a 4697 313a 04cf 023b ceb2 ba3c
000000f0: 078e 323a a43c 903c 68bd fd3a 49ce 7bbc
0.014512448 -0.000437246 0.00583455 -0.0038632757 -0.00043789798 -7.730706e-06 0.0051244665 -3.5098963e-06
-0.010239028 0.02218441 -0.014939979 -0.020053383 0.025731433 0.0038288506 -0.0018468475 -0.001835492
0.003979621 0.030724777 -0.030305935 1.147552e-05 -0.021967433 6.0056973e-06 8.038801e-07 -0.00088791596
-0.014444599 -0.030248288 0.00031962496 0.0007185979 0.00075857056 -0.00077796413 0.027349593 0.011493095
0.026486853 0.008277136 -0.041813456 0.0019206881 2.7188662e-05 1.1660069e-05 6.4875144e-06 -0.00026969588
0.0004201066 0.010654407 0.0011566235 0.00079258287 0.00040293398 0.00045392514 0.0006452412 0.00037849727
-0.0043510026 0.0359371 -0.03796514 -0.0021846427 -0.015947176 -0.035295546 -0.02218321 5.177219e-06
0.00055357505 0.00067745557 0.0019959817 0.022790339 0.0006811325 0.01760704 0.0019358816 -0.015369006

weight f4 [4, 16]
00000000: 08f6 843a bb84 2ebd f7cc 11bc 7392 c438
00000010: 8566 e63c de3a dd37 483b 10bd de9c 8236
00000020: c3b8 82ba e799 6c3a 5e7e 8f38 a8cc 25bd
00000030: c755 a83a c1c0 9ab4 016f 84b3 23a7 1e3b
00000040: e667 e8b9 7572 873c 960f 3839 5071 6637
00000050: 8f6c 9737 4b5f 3736 2da1 773a 2c0e 7e35
00000060: 1e71 b9b9 d3ad fcba 81a1 5d37 2b43 5b3c
00000070: e058 443a 3f9f b4b3 7f1f 04b3 cd4a 67bb
00000080: d7d4 6b3a 3148 8d3a b68e 3abc 59e6 a538
00000090: e9ce c4ba 73f3 27bd 5a46 2937 beb5 0f3d
000000a0: de2b d8bc c550 b0b8 cc51 a6b7 624a f5b6
000000b0: 5b31 48b5 33b1 283d 4c01 c2bb 3443 1fb9
000000c0: 73f8 153b b372 313d 356b 283a 8eb1 0439
000000d0: e660 aa3a a8b8 03bd e9c9 bcbb 7c1c 5737
000000e0: 05bd 3aba fbe9 0539 16cc 61bc 9d1b bf38
000000f0: b86b c53c ee84 eb38 aa4e cdb7 7c92 423b
0.0010144124 -0.04260705 -0.008898965 9.3732866e-05 0.028125057 2.6372665e-05 -0.035212785 3.8925637e-06
-0.0009973276 0.0009025619 6.842309e-05 -0.04047838 0.0012842946 -2.8824982e-07 -6.1669205e-08 0.0024208508
-0.000443279 0.01653407 0.00017553414 1.3735451e-05 1.8051154e-05 2.7324593e-06 0.00094463193 9.4642996e-07
-0.0003537023 -0.0019277878 1.321023e-05 0.013382713 0.000749005 -8.41087e-08 -3.076229e-08 -0.0035292387
0.0008996254 0.0010778961 -0.011386564 7.910719e-05 -0.0015015277 -0.041003656 1.0089565e-05 0.035085432
-0.026388105 -8.4073785e-05 -1.9826832e-05 -7.3102283e-06 -7.457763e-07 0.041184615 -0.0059205648 -0.00015188457
0.0022883683 0.043322276 0.00064246665 0.00012654645 0.0012998849 -0.032158524 -0.0057613743 1.2821631e-05
-0.0007123503 0.00012771033 -0.013781568 9.112733e-05 0.024099216 0.00011230433 -2.4474535e-05 0.0029689362

weight f4 [4, 16]
00000000: 001a 653c bf4e caba bce1 69ba bde2 3cba
00000010: 193f b0ba 38a2 60bc c9a2 edbb f7f1 88bc
00000020: f54a 56bb 620e 9cba c064 deba 6e71 4bbb
00000030: 8718 29bb 7c54 1abb 8e68 d4ba eb43 b2ba
00000040: 83e1 da39 bf05 34ba 0827 243d f0aa f73c
00000050: 0652 9c3b 66ab ed39 8bbf bdbb b04a 603a
00000060: a4f7 1f3a d181 7e3a 9d5e 533a f4bf 893a
00000070: 65c3 28bc d54b 173d 75b2 29bc 471e 6f3a
00000080: e485 663a d599 303a 42a3 d83c d3a6 13bc
00000090: af74 bcbb a5fe cdbc c9d9 6b3a d219 9c3c
000000a0: 231b dabc 51f1 fb3a 598a 153b 7e2a 073b
000000b0: 92d5 cbbc 49d1 ca3c fd15 0639 b6ef 8b3a
000000c0: 13a0 e13c b186 0dbb bf21 76ba 0091 9fba
000000d0: ea44 27bb 5230 a1ba 547d 12bc 6bf2 77bc
000000e0: 7180 2c3d 97ac f9ba b090 06bd e09c d7ba
000000f0: fc45 d7bc 3dbd 67bb 18c4 23bb 25b2 bcba
0.01398325 -0.0015434845 -0.00089218817 -0.00072054175 -0.0013446539 -0.013710551 -0.0072520715 -0.01671694
-0.0032698486 -0.0011906142 -0.0016967282 -0.003104295 -0.0025801973 -0.0023548892 -0.0016205476 -0.0013600563
0.0004174822 -0.00068673113 0.040076286 0.030232877 0.00477052 0.00045331864 -0.005790656 0.0008556051
0.000610227 0.0009708675 0.00080631097 0.0010509477 -0.010300492 0.036937553 -0.010357489 0.0009121638
0.0008793755 0.000673679 0.026445035 -0.009011942 -0.0057512145 -0.025145838 0.0008996991 0.01905528
-0.026624268 0.0019221698 0.0022818057 0.0020624693 -0.024882112 0.024757998 0.00012787427 0.0010676298
0.02754215 -0.0021595175 -0.0009389184 -0.0012173951 -0.0025523254 -0.0012297726 -0.008941013 -0.015133481
0.04211468 -0.0019048628 -0.03285283 -0.0016449951 -0.026278488 -0.0035360598 -0.0024988707 -0.0014396353

weight f4 [4, 16]
00000000: d978 11bd 75c8 c0ba 38dc 6bba da3a c0ba
00000010: 3447 7dba ce17 d1ba fd42 87ba 3eb9 81bc
00000020: ad10 5e3a 1629 da3a 624e 0638 1719 ac3b
00000030: 34e5 babc 8b38 95bb d706 b33a 1758 353b
00000040: 69d9 8fbb 1292 b43a 94b7 783b 5073 0b3d
00000050: aa5e f73a 1f6d 7a3c 5307 d53a 6d47 813c
00000060: 103c 88ba 4ef8 733c e2d3 ea3b 1a2c 89ba
00000070: 4793 41bb ab3b 393c 4f8a ab3c be67 caba
00000080: 491f 28ba 3d89 183d 5d2d b3bb 4620 1d3c
00000090: 0bce b1ba 4354 40bc ff2c 9eba 9237 e83c
000000a0: a66d 1f3d 6097 ad39 28a2 be3a e00d 59bc
000000b0: 8015 553b 69ab 023c d844 6abb a05f 943a
000000c0: e14b b93c e3fa e1bc c2df 56bc 3f89 00bd
000000d0: efd5 963b 2ed9 1cbb 4087 8fbc f403 2eba
000000e0: 445b 393a c0df 5dbc 57e7 d4bc b8cf ee39
000000f0: 3c2a cd3a a210 28bb 6c41 f13b d22d 7d3c
-0.03551564 -0.0014708178 -0.0008997354 -0.0014665977 -0.0009661794 -0.0015952529 -0.0010319647 -0.0158354
0.0008471113 0.0016644325 3.202109e-05 0.0052520144 -0.02281437 -0.0045538596 0.0013658655 0.0027670914
-0.004389931 0.0013776443 0.0037951218 0.034045517 0.0018872817 0.015284806 0.0016252793 0.015781129
-0.0010393877 0.014890743 0.0071663717 -0.0010465414 -0.0029537247 0.01130573 0.020939974 -0.0015442295
-0.0006413353 0.037240256 -0.005468054 0.009590214 -0.0013565434 -0.01173884 -0.0012067853 0.02834681
0.03892293 0.00033109915 0.0014544176 -0.013247937 0.0032514036 0.007975438 -0.00357466 0.0011320002
0.02261919 -0.027585452 -0.013114871 -0.031380888 0.0046031396 -0.002393316 -0.017520547 -0.00066381623
0.00070707896 -0.013542116 -0.025989218 0.0004554966 0.0015652846 -0.002564468 0.007362535 0.015452819

weight f4 [4, 16]
00000000: 5890 1a3c 9185 ff3b 4adc a43c e8f0 42b7
00000010: deae 94ba 4570 22bc c051 d13b 0eb4 0339
00000020: 882f a03b 0a57 05bd f52c 103d 739e 25bd
00000030: cda9 193d e6a1 5a38 930b 443c e725 8039
00000040: 35ae 4abb bb58 963b f50f 99bc bc8a 84ba
00000050: 94c4 f63c 9f90 4bbc a5e6 9eba 0f0d d539
00000060: 94ee e8ba 1734 7fb9 db16 b03a 1ecd e8b7
00000070: 21cc a63c e420 2bb9 9161 cc3c ebcb e93b
00000080: 3410 e0bc b919 20bd b19e 213d 4b7d aa3c
00000090: 6762 c53c cb8f d939 5a82 54ba 7acd 44bc
000000a0: b96c 41bc 23a7 f13b 006e 19b6 77ff 65b8
000000b0: cfb5 42b8 eb88 f23c 26c4 93bc 936c 0338
000000c0: d6a9 9838 b738 8bb9 7b0a b9bb 98a8 0cbc
000000d0: 4f41 d4b8 8619 6038 9cf7 1c3c 2426 1cba
000000e0: 1233 c13c 91d0 2c3c 51e4 8e3c bcab 4438
000000f0: fa9e 03b8 e04c 2c3b 0d55 08b9 8949 a2bc
0.009433828 0.007797905 0.020124573 -1.1619391e-05 -0.0011343618 -0.009914462 0.006387919 0.00012560209
0.0048884787 -0.03255371 0.035199124 -0.040434312 0.03751545 5.212603e-05 0.01196565 0.00024442302
-0.003092659 0.004588214 -0.018684367 -0.0010112147 0.030123033 -0.012424617 -0.0012123181 0.00040636255
-0.0017771297 -0.000243381 0.0013434546 -2.775207e-05 0.020361008 -0.00016320084 0.024948867 0.0071349046
-0.027351476 -0.03908703 0.03945798 0.020811697 0.024094773 0.000414966 -0.0008106582 -0.01201188
-0.011805707 0.0073746606 -2.2862805e-06 -5.4835775e-05 -4.6422527e-05 0.029606303 -0.018037867 3.133395e-05
7.279559e-05 -0.00026554402 -0.0056470013 -0.008585118 -0.000101211124 5.3429532e-05 0.009580519 -0.0005956611
0.023583923 0.010547773 0.017442854 4.688998e-05 -3.1380892e-05 0.0026290938 -0.00013001655 -0.019810455

weight f4 [4, 16]
00000000: 1ff0 0f39 e90e 113d bf5c 8f3c 8fe4 a73c
00000010: 2a79 8e3b e295 b93c 9711 ec3b 36f8 8336
00000020: 6a6b 10b8 90d0 2a39 80d3 dfbb 13d7 2439
00000030: f3b1 87b9 8071 0fba b00e 4db8 68ad e234
00000040: 49d9 c73c d4db f2bc 50f9 7b3b 34d9 fc3c
00000050: 3142 2cb8 ddad 0dba 0312 0ebd 4bb0 7e39
00000060: 456b 9b3c 5839 b8b7 f608 8739 ee78 943c
00000070: ff8a 863c a1e7 1bba 6d69 0c3d a78a 0b3c
00000080: b29a 50ba ff24 ecbc cb2e 393c aff9 83b9
00000090: 3400 a6bc 5a81 2a3b ceb8 3bba e24f 9fba
000000a0: 3d60 693a 4a7d edbb acde 86ba 1840 3dbb
000000b0: b17a c1ba 2e3c 743c f56f 063c 54b7 83ba
000000c0: 50ed 333d f54b 8c3b ab2b 903c e9ad 3cbc
000000d0: 44c9 da37 bb54 1a3d c314 223d 8c45 c2ba
000000e0: ed80 b53c ce69 d039 5467 583b c499 d73c
000000f0: bc24 0137 3898 50bb e7a1 39ba f975 0c3a
0.00013726995 0.03541461 0.01750028 0.020494727 0.00434794 0.022654478 0.0072042453 3.933e-06
-3.4432313e-05 0.00016290159 -0.0068306327 0.0001572038 -0.0002588179 -0.000547193 -4.8889488e-05 4.222195e-07
0.024395602 -0.029645838 0.0038448162 0.03086529 -4.106964e-05 -0.0005404631 -0.034685146 0.00024289002
0.018972049 -2.1961212e-05 0.00025755883 0.01812407 0.0164237 -0.0005947296 0.03428023 0.008516944
-0.0007957622 -0.028826235 0.01130266 -0.00025172296 -0.020263769 0.002601704 -0.0007161022 -0.0012154544
0.0008902585 -0.0072476016 -0.001028975 -0.0028877314 -0.0014761296 0.014906926 0.008205404 -0.0010049143
0.04392749 0.0042815157 0.017598948 -0.011516073 2.6081347e-05 0.03767846 0.03957058 -0.0014821752
0.022156203 0.00039751682 0.0033020573 0.026318438 7.697552e-06 -0.003182901 -0.0007081315 0.00053581555

weight f4 [4, 16]
00000000: 307c 3c3a 33b7 0c3a 7599 1d3b 7743 8839
00000010: fd3e 463b b635 c939 875b d53a c038 a039
00000020: 3253 193a 2cc7 803a 256c d03a 56de 533a
00000030: ee9e 9a3c 9627 f039 dd7f 8ebb 783d bf3a
00000040: 4314 a13c b68a 4f3a 42d8 e73b 63fb 6f39
00000050: 02a2 723a 316a 6c3c c6df e53b 7a40 923c
00000060: 579c 873b e3b8 183b 3877 603b b07b 5abb
00000070: c50b eb3a 8f80 98bc d643 74bb 6d9a 983a
00000080: 7c6c 9739 2213 f03a f1c7 943b f5d9 d039
00000090: 92d9 1ebd 352b c03c f303 213d 097c debc
000000a0: 0e33 1c3d bcd9 3f3b b1bb 0e3b 23b1 423b
000000b0: aca0 523a 6e50 e93a 28e4 c03a 9fb3 ac3a
000000c0: cc76 60ba 609b 143d 4773 ceb9 881a 94ba
000000d0: 2157 033c 00ca 35bc f0b5 c73c cf32 70b9
000000e0: 40d9 1abd 0c33 60ba 5bbe a0ba 8d1b 20bb
000000f0: 3d6f 8eba b535 3aba 8935 9dba 672d 2f3c
0.0007190136 0.0005367875 0.0024047766 0.00025990207 0.0030249946 0.00038377725 0.0016277888 0.0003055986
0.0005848884 0.0009824983 0.001590137 0.0008082142 0.018874612 0.0004580586 -0.0043487386 0.0014590463
0.019662982 0.0007917093 0.0070753405 0.00022886465 0.00092557084 0.014429615 0.0070152013 0.01785301
0.00413851 0.002330356 0.0034250747 -0.0033337884 0.0017932585 -0.018615989 -0.0037271879 0.0011642702
0.00028881792 0.0018316249 0.0045404364 0.00039835242 -0.03878171 0.023458103 0.039310407 -0.027158754
0.038134627 0.0029274067 0.0021779353 0.0029707632 0.0008034806 0.0017800459 0.0014716433 0.001317609
-0.0008562624 0.03628099 -0.0003937727 -0.0011299411 0.008016379 -0.011095524 0.024378747 -0.00022907111
-0.037804842 -0.00085525285 -0.0012263762 -0.0024430484 -0.0010866892 -0.000710334 -0.0011994104 0.010691977

weight f4 [4, 16]
00000000: fc1a e33a 319c 783c 0e0a 193a 8b74 f739
00000010: c799 c839 21e3 5bbc a93d d239 6b69 1bbb
00000020: c239 b5b9 a079 f1bc ec57 95b9 1320 81bb
00000030: c73b 40b9 439c 16ba 58ca d2b8 ca5e a6b8
00000040: 6c9b 7eb7 2e96 d7b6 0c86 ca3c 5d6a 7538
00000050: 1803 9fbc e199 f23c aa42 a93c 02b3 8236
00000060: 7586 adb9 7c72 eabc cfea 92ba fed3 f6b7
00000070: 1225 8939 fd70 d23b 4ec4 aeb7 b6c6 11bd
00000080: 0943 25bc 8b3a eb3a c685 2b3c 346c 873c
00000090: ee16 a1bc 9b83 743c a872 3b3a 7aed 9d3c
000000a0: 6ec7 86bc 9274 93ba 5848 92bb b9ed 7cbc
000000b0: e49b e1b9 f7bd b4ba 6375 323b 0129 1cba
000000c0: b2ea d83c e9c8 10bc af28 22bd 20fd 06b8
000000d0: af45 ddba af67 b1bc ff2d 30b8 2fa2 503c
000000e0: 6e10 3139 527d ae39 1e69 d03c 705a 3ebc
000000f0: 8637 3138 0cc5 7538 4bd0 b2b9 8a46 c038
0.0017326768 0.015173958 0.0005837985 0.00047198343 0.00038261546 -0.013420851 0.00040100262 -0.0023713957
-0.00034566043 -0.02947694 -0.00028485002 -0.003940591 -0.00018332816 -0.0005745331 -0.0001005127 -7.933153e-05
-1.5175767e-05 -6.4249825e-06 0.024722122 5.851161e-05 -0.019410655 0.02961439 0.02066167 3.895141e-06
-0.0003309731 -0.028619044 -0.0011208894 -2.9424202e-05 0.00026158296 0.0064221607 -2.0833828e-05 -0.035589896
-0.010086783 0.0017946524 0.010468906 0.016531087 -0.019664254 0.014923955 0.0007150569 0.019278277
-0.016452517 -0.0011249951 -0.0044641905 -0.015437537 -0.00043031492 -0.0013789524 0.0027230612 -0.0005957038
0.026479099 -0.008836963 -0.03958958 -3.218383e-05 -0.0016881729 -0.021655886 -4.2004507e-05 0.01273398
0.00016886156 0.00033281237 0.025440749 -0.011618242 4.22518e-05 5.8596066e-05 -0.00034105996 9.168412e-05

weight f4 [128, 17, 1, 1]
00000000: acef c434 b079 833b 1419 8eb8 7c11 63bb
00000010: e774 c9b6 7698 b2bc 2cef cdba 80e2 ff36
00000020: 3200 36ba 1022 d73b 89a3 d1b6 d264 abb7
00000030: 6e85 f3b6 9d14 35b7 7cbd 0fb7 6e8e 20b6
00000040: b68a 433c 6bf7 9d35 73f5 d037 e253 1e39
00000050: 6a36 a7bc 3a37 403a a374 a7bb 0587 8c3c
00000060: 0ff2 353c 8a85 0e3d aa5d 79b7 ab42 3637
00000070: 73de 863b 990d 96bc 3aa9 05bd 1cdd babb
00000080: d925 c93b d4fa 17bd c939 a5bc abb0 22ba
00000090: ad34 07bb 6a30 d83a 14c1 563c e199 bc3c
000000a0: 40bf 40b7 08c8 4cbb 3d81 183d 1fd9 aebb
000000b0: 4cc2 58bc 6c02 acbc e201 04ba 962c 193d
000000c0: a902 1f3c aa46 d13c 4e76 96b8 b7e1 9b3c
000000d0: 9ee2 073c 4935 19bd 59b1 e1bc 9178 91bb
000000e0: f2c2 2c3c 7224 b73c 7dc8 11bc eddd fcbb
000000f0: e3ce 163d 453b e5bb 7837 c9b8 f89c cebc
00000100: d496 aa3c 262d 6fbc eccb abbc b675 7b3a
00000110: a54a 6f35 89b9 a4bb e7a5 50bb 4d74 83ba
00000120: 39d4 dc3b 5bd1 02bb b7fd 8dbb f4f9 08b6
00000130: 655d 9ebc 4918 d73c f4f1 1b3d c26e 9137
00000140: e065 8035 f84e a0bb ac4c a8bc 7640 56b6
00000150: 4e1b ca3b e49e 99bb f1f1 bdbb 1013 8239
00000160: e0e2 93ba 0675 183c 73eb ddbc e571 bd38
00000170: cc51 f7ba ac7e 8a37 33c1 22bc 8e00 f5b8
00000180: 52fe 1a39 e997 0cbd 629b f93a 143a f73c
00000190: 79ad 5b39 9771 cdb8 fb1e bf3b 45aa 7b39
000001a0: f4f4 e839 3288 3537 3517 9d38 c61a 59b9
000001b0: 3798 013d be60 8e38 3ac6 493b 05a4 08bd
000001c0: 174c 3c39 e2d7 8038 8916 1539 704f e039
000001d0: 8134 083b 2fbb 6b39 0634 8cb9 dad1 d5bc
000001e0: 2ee1 29b9 9cd3 8b3c 761d 74b6 cf42 983c
000001f0: 1ba1 c53a 0c18 7ab7 4865 8237 d6a5 88b8
00000200: 7f95 da37 0b39 913c ee5b 503b cea8 40b8
00000210: 93e9 8d3c fce4 edbc 66b2 d1bb 4787 e5ba
00000220: 6986 2e3a 0105 2c3d c197 a33c 64d9 04bd
00000230: fd31 94bc 78a5 813d 17b4 0fbd 8b71 983d
00000240: ccd5 de3b 2a0e e53b 7cef f4bb b98f 0dbd
00000250: 7fc9 04bd e97e 2e3d 3ae2 d2bb caf1 713c
00000260: 5e24 bdbc 909d a134 a995 2437 73ed 09bd
00000270: d961 70b7 cd59 183b bcf9 453c 2c7c 8536
00000280: 77cc 95b9 e42a 65b6 1f2c b837 e6c5 0eb7
00000290: a5de 0bb8 df14 eeb4 2b64 093d 0af0 ec3b
000002a0: 011c 0fbc 41d7 f23c d157 5a37 e3b1 6aba
000002b0: 217d 53ba 1f5a 17bb c35d 04ba 6b24 893a
000002c0: 91f4 2b3a c46b 4039 3fe0 ce3a edc7 0538
000002d0: 7121 ddbc da93 9bb8 f380 753c e7fd 08bd
000002e0: 7c2b 7c3c 040f 5cbb c92c 0f3a 5a1b 82bb
000002f0: 9fe6 413c e459 283c 739f f5bc 98d4 1c3c
00000300: db53 1ebd 55c6 fe3c 98a0 563c 4b51 2d3d
00000310: ce32 23bd 945f 3a3d 41b9 103d 743a e736
00000320: 6112 63bc 9209 ea3b 8cd8 daba cc38 10bd
00000330: 8998 f7ba c2df 8d3b c7f9 d63b b885 e8ba
00000340: a8c0 9c3a 0e92 cc39 dd68 e33a a160 89bc
00000350: 07fd a03c 4289 96bb f7f9 7d3a 0513 02bd
00000360: e7db 763b 5e0a 4d3b 4b7c 7cbc 0ad6 a93a
00000370: 505a 833c dfb8 9637 36d2 06bc 6ccf 37bc
00000380: 9ce8 44bc 6db3 f0ba 8edd d83b f8ba b1bb
00000390: af67 05bc 41ed 7b3c 6d06 a6bc e753 c2bc
000003a0: cb98 85bc b974 63bb 0495 863c 72e6 16bb
000003b0: dd55 1c3c 08fe 6dbc ab2f c139 d5d8 f0bb
000003c0: 22bd 943c cc7d 5c3c 2aac 6d3c 7aff 54bd
000003d0: db1b 11bd b2e0 803c f0d1 49bc 0c4e b93a
000003e0: cef1 aa3c 9b54 3d3c f383 943c 5f9f 8fbc
000003f0: dcee 093d 0612 14bc 020f 073c 4b9a 9c39
3.668223e-07 0.004012309 -6.775759e-05 -0.0034647873 -6.003876e-06 -0.021801215 -0.0015711538 7.6259603e-06
-0.0006942778 0.00656534 -6.2477234e-06 -2.0431737e-05 -7.2574976e-06 -1.079324e-05 -8.567582e-06 -2.3924763e-06
0.011934927 1.176942e-06 2.4909828e-05 0.00015099303 -0.020411689 0.0007332448 -0.0051103397 0.017154226
0.011105075 0.03479532 -1.4863364e-05 1.0863568e-05 0.0041158735 -0.01831703 -0.03263209 -0.005702628
0.006138545 -0.037104443 -0.020169156 -0.0006206135 -0.0020630762 0.0016493921 0.013107557 0.023022594
-1.1488621e-05 -0.0031247158 0.037232626 -0.0053359414 -0.013229918 -0.020997249 -0.0005035681 0.037396036
0.009705224 0.02554639 -7.174593e-05 0.019028528 0.008293776 -0.037404332 -0.027550386 -0.0044394215
0.010544525 0.022356246 -0.008897898 -0.0077168853 0.036818396 -0.006995591 -9.594759e-05 -0.025221333
0.020823874 -0.014598167 -0.020971261 0.00095924304 8.914306e-07 -0.0050270003 -0.0031837167 -0.0010029167
0.006739166 -0.0019961211 -0.0043332237 -2.041107e-06 -0.019331643 0.026256697 0.03807254 1.7336923e-05
9.566393e-07 -0.0048922263 -0.020544372 -3.1926006e-06 0.0061678058 -0.0046881307 -0.005796664 0.00024809735
-0.0011282824 0.009305244 -0.02708981 9.033437e-05 -0.0018868982 1.6509868e-05 -0.009933758 -0.00011682614
0.00014781326 -0.03432456 0.00190435 0.030179061 0.00020950091 -9.7963195e-05 0.0058325506 0.00024000656
0.00044432993 1.0820151e-05 7.490666e-05 -0.00020704707 0.031639304 6.789107e-05 0.0030788318 -0.033359546
0.00017957423 6.143727e-05 0.00014218142 0.00042783795 0.0020783248 0.00022481078 -0.0002674164 -0.026101042
-0.00016200982 0.017068677 -3.6375982e-06 0.018586544 0.001507792 -1.490676e-05 1.554437e-05 -6.515875e-05
2.605724e-05 0.017727396 0.0031793076 -4.593358e-05 0.01732329 -0.029039852 -0.0063994406 -0.0017511629
0.0006657602 0.04199696 0.019969823 -0.032433882 -0.018090243 0.06330389 -0.035083856 0.074435316
0.006800389 0.006990214 -0.007474838 -0.034560893 -0.032418724 0.0426015 -0.0064356597 0.01476712
-0.02308863 3.010323e-07 9.810007e-06 -0.033673715 -1.4327897e-05 0.0023246885 0.012083467 3.9781644e-06
-0.00028571833 -3.4148625e-06 2.1955055e-05 -8.509936e-06 -3.3347536e-05 -4.434614e-07 0.033542793 0.0072307633
-0.008734704 0.029643657 1.3014259e-05 -0.0008952899 -0.0008067657 -0.0023094488 -0.0005049372 0.0010463124
0.00065595756 0.00018350693 0.0015783383 3.1895866e-05 -0.026993485 -7.4185155e-05 0.014984357 -0.033445265
0.015391227 -0.0033578286 0.00054616906 -0.0039705457 0.0118347695 0.010275338 -0.029983258 0.009572171
-0.03865419 0.031100431 0.013099812 0.042313855 -0.039843373 0.045501307 0.035332922 6.8911413e-06
-0.013859362 0.007142254 -0.0016696616 -0.035210416 -0.0018890064 0.0043296525 0.0065605375 -0.0017740047
0.0011959272 0.0003901873 0.0017349977 -0.016769709 0.019651903 -0.004593999 0.0009688432 -0.03175642
0.0037667693 0.0031286697 -0.015410493 0.0012957465 0.016034275 1.796748e-05 -0.008228829 -0.011218887
-0.012018349 -0.001836402 0.0066182083 -0.0054238997 -0.008142396 0.01537639 -0.020266736 -0.023721648
-0.016308209 -0.0034707023 0.016428478 -0.002302554 0.009541956 -0.014525898 0.00036847344 -0.007350067
0.018156592 0.013457727 0.014506379 -0.052001454 -0.035426956 0.015732143 -0.012318119 0.001413764
0.020867255 0.011555816 0.018129325 -0.017532049 0.03367506 -0.0090375 0.008243324 0.00029869596

bias f4 [128]
00000000: e8db 033a 0b8a 493c e3c0 5fb2 dcdc 2539
00000010: 0588 8eb1 40ca 12ba 127b ba30 0bc7 4eaf
00000020: 2219 3732 1279 37b3 2148 e8b2 3001 01bc
00000030: d834 1532 c2f0 2932 6823 e8bc 405d 47ac
00000040: c689 dbb1 7083 50b2 7b68 9aba c0c2 043c
00000050: 3068 89b1 f1db c432 18b7 78b2 9df7 49bb
00000060: 95e9 543a af51 cbb1 8fa0 95bb 1fdf 84b8
00000070: 5612 0331 ee7b 18bb cee3 b13c 0d95 a7bc
00000080: fab4 8b3c 70a1 fb3c 9947 ac35 a96e 14bd
00000090: eeed 2932 d209 bd3b a175 52b9 b78d c5bc
000000a0: 54f7 8032 3738 4634 fe37 3932 211c 9530
000000b0: 62b8 0bb7 08b4 67bb f141 a1bb 2d76 3db4
000000c0: b08f 803c f646 15b1 280d a7b0 1b21 f73b
000000d0: 2bd1 103b 43f4 8e3c d85e 8b3c 7671 9db1
000000e0: 52df 31b2 a221 6a30 1511 f03c 2f30 5a34
000000f0: 1867 e63a eea4 43b1 804a c3bb ebf8 033d
00000100: 2b67 fa31 701e 0a3a 7b69 d9bc 87b6 4931
00000110: 2396 323b 3a71 d8bc c4c7 4dba c479 8330
00000120: 5c47 5cbc d7ab 073d ab93 193c 4152 a7b1
00000130: 8831 7dbc 90b4 5631 8629 20bd d55e a03c
00000140: d927 1fbd 8c49 bbbc c03a 94b4 03d8 623c
00000150: bfc2 e6bc e0ea 3430 d6f7 c83c 1005 dd3b
00000160: 0b68 373b 2add 3235 bc88 f9bc 4f32 5534
00000170: a248 6531 dde2 5334 88bc 3930 3153 3932
00000180: 310d 2931 caf1 bdb9 5e7e 91b2 ef4f e73c
00000190: 6967 15ba 4a41 5cb8 70b1 8131 653e 91b1
000001a0: 5837 bfbc 16fb 1dbd cfbb d5ba e2df ad31
000001b0: 6870 ab38 2bfe 133d cb64 05bc 7912 ddba
000001c0: ed42 603c 3fea ee39 8bad 3531 970c 84b5
000001d0: 5473 0131 e9a8 463c 6acc b933 b585 da30
000001e0: 7624 eeba 9050 b031 a606 bab1 4ef6 8035
000001f0: b6c0 e3b9 ffe2 ebbb 987b 9db1 4815 12b1
0.0005030022 0.012300978 -1.3024166e-08 0.00015817903 -4.1482076e-09 -0.00055995956 1.356826e-09 -1.8806305e-10
1.06577165e-08 -4.271812e-08 -2.7041155e-08 -0.007873818 8.684957e-09 9.891837e-09 -0.028337196 -2.8331365e-12
-6.389402e-09 -1.2137079e-08 -0.0011780405 0.008103073 -3.9990695e-09 2.291742e-08 -1.4477131e-08 -0.0030817755
0.00081219646 -5.917364e-09 -0.004566259 -6.33581e-05 1.9073432e-09 -0.0023267227 0.021715071 -0.020456815
0.01705407 0.030716628 1.2835836e-06 -0.036238346 9.891194e-09 0.005768993 -0.00020070981 -0.024115426
1.5013633e-08 1.8460638e-07 1.0781148e-08 1.0849172e-09 -8.327976e-06 -0.003535511 -0.004921191 -1.7644989e-07
0.015693516 -2.172269e-09 -1.2154588e-09 0.0075417883 0.002209733 0.017450457 0.017012998 -4.5822004e-09
-1.0353533e-08 8.51765e-10 0.02930502 2.0320361e-07 0.0017578332 -2.8469986e-09 -0.005959809 0.03221981
7.2876865e-09 0.0005268818 -0.026539555 2.9353104e-09 0.0027250133 -0.026421178 -0.0007849897 9.566112e-10
-0.013444748 0.033122864 0.009373586 -4.869691e-09 -0.015453704 3.1243736e-09 -0.0391021 0.01957647
-0.03885636 -0.022862218 -2.7609894e-07 0.0138454465 -0.028169034 6.5817396e-10 0.02453224 0.0067449883
0.0027985598 6.6632003e-07 -0.030460708 1.9855473e-07 3.3365173e-09 1.9733439e-07 6.7570527e-10 1.0787333e-08
2.4600235e-09 -0.00036229036 -1.6937687e-08 0.028236357 -0.0005699308 -5.2512893e-05 3.7745664e-09 -4.227149e-09
-0.02334182 -0.038569532 -0.0016306582 5.060415e-09 8.174853e-05 0.036131065 -0.008141707 -0.0016866467
0.013687831 0.00045569424 2.6437614e-09 -9.83843e-07 1.8837527e-09 0.012125232 8.6519165e-08 1.5899589e-09
-0.0018168825 5.131433e-09 -5.4140683e-09 9.608427e-07 -0.00043440395 -0.007198691 -4.5833524e-09 -2.1257893e-09

weight f4 [128]
00000000: 1282 383f 4483 383f f35f 383f 888d 383f
00000010: e381 383f 3283 383f 7382 383f 2d82 383f
00000020: 4749 383f 0b82 383f 7d82 383f 5782 383f
00000030: a376 383f d592 383f f749 383f 2782 383f
00000040: 5682 383f 7163 383f c886 383f 31c7 383f
00000050: 1582 383f 529c 383f 0b58 383f 4983 383f
00000060: 9299 383f 2c83 383f 2082 383f f46e 383f
00000070: d582 383f 4f82 383f 9410 393f 776f 383f
00000080: 987c 383f 8b84 383f c381 383f 2d82 383f
00000090: a187 383f 9bcc 383f 9282 383f 818b 383f
000000a0: 2d82 383f 2782 383f a5a1 383f 7082 383f
000000b0: 7a80 383f 917d 383f 1b82 383f 7282 383f
000000c0: 3482 383f 7282 383f 4782 383f 09a6 383f
000000d0: 2645 383f b785 383f fc80 383f e281 383f
000000e0: 388b 383f 5783 383f 0882 383f 628b 383f
000000f0: 48a0 383f cb8b 383f b19b 383f d881 383f
00000100: a97e 383f 3194 383f 0182 383f ce71 383f
00000110: 8e86 383f 6fa4 383f 4b54 383f 2b7d 383f
00000120: 9182 383f 1f82 383f d581 383f e562 383f
00000130: 5682 383f 1082 383f 7882 383f 5277 383f
00000140: 9682 383f f981 383f 2382 383f bd5b 383f
00000150: 4d75 383f 2382 383f 1b7b 383f 1d82 383f
00000160: 1381 383f 5989 383f 2482 383f 2f82 383f
00000170: 4c8e 383f 1d82 383f 2882 383f 1682 383f
00000180: 6382 383f d891 383f 1383 383f febc 383f
00000190: a35b 383f b481 383f e981 383f 2682 383f
000001a0: 3261 383f 2081 383f 8b82 383f 4074 383f
000001b0: cf7a 383f 1471 383f 3b82 383f 567a 383f
000001c0: b187 383f ff81 383f 1382 383f 6083 383f
000001d0: 6c73 383f 2882 383f 0874 383f 0b80 383f
000001e0: 2685 383f e281 383f 4a82 383f 4282 383f
000001f0: 1782 383f 3384 383f 6692 383f 1982 383f
0.7207347 0.72075295 0.72021407 0.7209096 0.7207319 0.7207519 0.7207405 0.7207363
0.7198681 0.7207343 0.7207411 0.7207388 0.72056025 0.7209905 0.7198786 0.72073597
0.72073877 0.72026736 0.7208066 0.7217894 0.7207349 0.72113526 0.7200934 0.72075325
0.7210933 0.7207515 0.72073555 0.720443 0.72074634 0.72073835 0.7229092 0.7204508
0.72065115 0.72077245 0.72073 0.7207363 0.72081953 0.72187203 0.72074234 0.72087866
0.7207363 0.72073597 0.7212165 0.7207403 0.7207104 0.720666 0.72073525 0.72074044
0.72073674 0.72074044 0.7207379 0.7212835 0.7198051 0.7207903 0.72071815 0.72073185
0.7208743 0.7207541 0.7207341 0.7208768 0.7211957 0.7208831 0.72112566 0.72073126
0.7206827 0.7210112 0.7207337 0.7204865 0.72080314 0.72125906 0.7200362 0.7206599
0.7207423 0.7207355 0.7207311 0.720259 0.72073877 0.7207346 0.7207408 0.7205707
0.7207426 0.7207332 0.7207357 0.7201498 0.72053987 0.7207357 0.72062844 0.7207354
0.7207195 0.72084576 0.7207358 0.72073644 0.7209213 0.7207354 0.720736 0.72073495
0.72073954 0.7209754 0.72075003 0.7216338 0.72014827 0.7207291 0.7207323 0.7207359
0.7202331 0.7207203 0.7207419 0.72052383 0.7206239 0.72047544 0.72073716 0.7206167
0.7208205 0.7207336 0.7207348 0.7207546 0.7205112 0.720736 0.7205205 0.7207038
0.7207817 0.72073185 0.72073805 0.7207376 0.720735 0.7207672 0.72098386 0.72073513

bias f4 [128]
00000000: 4b90 9538 0805 2bb9 1a97 74bc 8780 a33b
00000010: c316 4338 d6cd da39 0990 d1b9 b091 4239
00000020: 5272 d239 458f 0339 45d6 2639 44a0 b739
00000030: 34a0 903b 1556 ddba 4b7a 2abb e1b3 45b8
00000040: 03cc 4c39 e020 24bc 33fc cdbb 5b52 f2bb
00000050: dea7 1f36 5182 1bbc 7b65 003b e577 88bb
00000060: 89f8 9a39 dbe8 e639 d28a e5b8 9d59 b4ba
00000070: 8eb6 90b8 a43c 1036 0e14 9cbb fe39 65bb
00000080: 47c6 03bb 670e 33ba 5c04 4bb9 017f 163b
00000090: 0ef1 9abb d3ad 1bbc 98f2 daba d200 40bb
000000a0: 1e4b 5a38 7c28 8639 0d9b 15bc 770c 12b7
000000b0: 8774 8a38 908a feba 4ca1 44b8 b317 cf38
000000c0: e58e c238 8cca f7b9 84b9 91b9 c341 8e3b
000000d0: 9e9b 36bb a81d 3c3b 9988 8339 92a2 96b9
000000e0: 587a 0c3b 8398 5db9 7ad6 0eb6 2f43 26bb
000000f0: 861c c6b8 9fb7 9a3b 0e3f 38bb 9007 15b9
00000100: a113 98bb 4aa9 3bbc 302d 253a f234 89bb
00000110: 62d0 22bc 4a24 5ebb 906d 1a37 f255 9e3a
00000120: 0e6e 8db9 3a45 8d38 9cce 0ab8 b6fa b4bb
00000130: f9a0 0f3a f5f0 2239 be7b 15b9 408e 1b35
00000140: e804 cb37 287b cdb8 8836 6137 7ae3 b3bb
00000150: d6fa 143c 69f4 e239 babc 943b be16 8eb9
00000160: de69 ef39 45e3 0ebc 050a 92b8 2f81 e138
00000170: 3b96 1fbb 8add 9036 17e4 a2b8 4098 cbb9
00000180: 46a5 e738 9e94 74bc c6a7 583a 14e6 f9ba
00000190: 7c7d 223b ea80 5cb9 a35d 6a38 053b 08b7
000001a0: 43bb eabb b324 3139 8625 073a ceb6 caba
000001b0: e2a7 7ebb 0b07 91bb 284c f3b8 4a46 aa3a
000001c0: ae25 363b 4ccc 4a39 2cdc ff38 6fb2 35bb
000001d0: 6e62 9ebb 274f e5b8 d123 903b 23c9 a6ba
000001e0: 8106 30bc ab9a a938 c57b a7b7 bc11 8736
000001f0: 612a 91b8 3848 96bb 5392 93bb 1843 1038
7.13175e-05 -0.00016309705 -0.014928604 0.004989687 4.651282e-05 0.0004173356 -0.000399709 0.00018555555
0.00040139497 0.00012546506 0.00015910815 0.00035023887 0.004413629 -0.0016886616 -0.0026012834 -4.7135985e-05
0.00019530956 -0.010017604 -0.006286168 -0.0073950714 2.3790558e-06 -0.009491519 0.0019591737 -0.004164683
0.00029558342 0.0004404251 -0.00010945428 -0.0013759617 -6.9004585e-05 2.149297e-06 -0.004763133 -0.0034977193
-0.0020107196 -0.0006830454 -0.00019361213 0.0022963884 -0.004728443 -0.009501892 -0.0016704379 -0.0029297364
5.204521e-05 0.00025588635 -0.009131205 -8.70518e-06 6.602058e-05 -0.0019419957 -4.688026e-05 9.8749435e-05
9.277257e-05 -0.0004726242 -0.00027794775 0.0043413355 -0.0027863751 0.00287042 0.0002508804 -0.00028731354
0.0021435227 -0.00021133017 -2.128449e-06 -0.0025369634 -9.446689e-05 0.0047215964 -0.0028113755 -0.00014212565
-0.004641012 -0.011453936 0.0006300984 -0.00418722 -0.009937378 -0.0033896142 9.204625e-06 0.0012080057
-0.00026975613 6.7362984e-05 -3.3094184e-05 -0.005523051 0.0005479004 0.00015539287 -0.00014255845 5.7949e-07
2.420177e-05 -9.7981014e-05 1.3423742e-05 -0.005489764 0.009093007 0.0004328818 0.0045390995 -0.00027101295
0.0004566451 -0.0087211775 -6.963689e-05 0.000107528984 -0.002435102 4.317325e-06 -7.767247e-05 -0.00038832612
0.00011045723 -0.014928011 0.0008264746 -0.0019065761 0.0024794033 -0.00021028859 5.5877153e-05 -8.119973e-06
-0.0071634366 0.00016893707 0.0005155433 -0.0015465857 -0.003885739 -0.0044258884 -0.00011601328 0.0012990918
0.0027793455 0.00019340328 0.00012200358 -0.0027724763 -0.004833511 -0.00010934314 0.004398801 -0.0012724738
-0.010743738 8.087357e-05 -1.9965586e-05 4.025378e-06 -6.9220325e-05 -0.004586246 -0.004503527 3.439476e-05

running_mean f4 [128]
00000000: 95ba 5dc0 fad3 abbf 9c7b 5841 8937 1dc0
00000010: c09b e3c0 8aee 68c0 5943 7240 5cf1 0640
00000020: 198e a041 443a 1740 4784 43c0 6dab c4bf
00000030: a065 1a41 b872 dd40 3a31 5ac1 783b 8040
00000040: 2d55 77bf 3acf 05c1 98b3 2d41 9f2f 85c0
00000050: 8505 b1c0 9542 b440 325a 30c1 42a3 8a40
00000060: 93e5 7dc0 12be 73c0 9205 75c0 8460 5240
00000070: e93f 0a40 661e 94c0 8841 2c40 cc36 333f
00000080: f545 1fc0 4880 e240 e957 9ac0 8bff b740
00000090: a0a9 1440 936e 8040 1b17 4e40 fa95 6240
000000a0: b6ec c23f dac2 5ec0 0071 98c0 3035 393f
000000b0: 3726 b240 f240 17bf 0ba1 8abf 2c24 2440
000000c0: 6b4e 52c0 a0a7 3240 e619 5340 70a3 533f
000000d0: 3428 1241 cd90 5340 20b1 a3c0 c4d1 1040
000000e0: 6f4d eac0 57a8 ee40 3428 7d3f aa8c 1a40
000000f0: 989b 0741 690e b540 7e79 bebf 3a8d e4c0
00000100: cae7 e240 6ead b13f 5511 97c0 de90 1f41
00000110: 67ff d440 5adc d53f e9c3 20c0 4f6e 01c0
00000120: 1f20 b440 51b3 31c0 9de9 ba3e 23fb e2c0
00000130: 88b5 11bf ca4d 1c40 ee5d 80be 0447 be40
00000140: 256e dac0 3a9a 553f bf9c 3d40 b567 8840
00000150: af91 b240 f812 e8bc ff6b 8cbe 20c6 e5bf
00000160: 53af 1b40 ca06 17c1 aa3a 8e40 fa0b acbf
00000170: d622 7a40 c2b3 a93f 48ef 8abf 919e ac40
00000180: 1c41 02c1 2612 1b40 3103 05c0 54a3 f2bf
00000190: cdca 1dc1 0002 fdbf d23c 82bf 36fe 8a40
000001a0: d1c9 6d41 f47c 0a40 fc9a 02c1 9ef2 05c1
000001b0: 8ac6 9e40 15bc c840 6726 d5c0 3821 a540
000001c0: eed4 9d40 13f6 a1bf 4eb8 2040 52c9 7840
000001d0: 2e56 6a40 f76d e3c0 361a c440 2997 61c0
000001e0: d0cd 47bf f125 25c1 b6c9 b8bf 69bd 6f3f
000001f0: d362 61c0 7c3e 5840 3bf9 af40 bbae 9440
-3.464513 -1.3424065 13.530178 -2.4565146 -7.1127625 -3.6395593 3.7853606 2.1084814
20.069384 2.3629313 -3.0549486 -1.5364815 9.649811 6.9202538 -13.637018 4.0072594
-0.9661434 -8.363092 10.856346 -4.162063 -5.531924 5.6331277 -11.02202 4.332429
-3.967137 -3.808476 -3.828465 3.2871408 2.1601508 -4.6287107 2.6914997 0.7000549
-2.4886448 7.0781593 -4.823231 5.749944 2.322853 4.013498 3.2201602 3.5404038
1.5228488 -3.4806428 -4.763794 0.7234678 5.567165 -0.59083474 -1.0830396 2.5647078
-3.2860363 2.791481 3.2984557 0.8267126 9.134815 3.305713 -5.1153717 2.262803
-7.3219523 7.4580493 0.9888947 2.4148355 8.475487 5.658009 -1.4880826 -7.1422396
7.0907946 1.3881052 -4.7208657 9.972868 6.656177 1.6707871 -2.5119574 -2.0223577
5.628921 -2.7765696 0.36506358 -7.0931563 -0.5691762 2.4422479 -0.25071663 5.946169
-6.8259454 0.83438456 2.962692 4.2626595 5.5802836 -0.028329358 -0.27426144 -1.7951088
2.432576 -9.4391575 4.444661 -1.3441155 3.9083762 1.3257983 -1.0854273 5.3943563
-8.140896 2.4229827 -2.0783198 -1.8956094 -9.862012 -1.9766235 -1.0174811 4.3435316
14.861772 2.1638765 -8.162838 -8.371733 4.9617357 6.272959 -6.660938 5.160305
4.9322424 -1.2653221 2.511249 3.8872876 3.66151 -7.1071734 6.1281996 -3.524851
-0.7804842 -10.321763 -1.4436557 0.9364839 -3.5216568 3.3788137 5.4991736 4.6463294

running_var f4 [128]
00000000: ac50 423f eb43 b23e e197 4341 e54e a840
00000010: 617e 7f40 6c54 f63e 77d8 503f cc55 bd3e
00000020: d530 a041 05ae ed3f 26cc f13c e093 0041
00000030: b69a 7440 1cba 4741 ab3f 4641 e380 7b3f
00000040: 072e 0c3e 2656 6041 5bc3 a240 8156 fa41
00000050: 6b4f 0f41 50a8 ba3f 382e c440 b2ab 0c41
00000060: 4f1e f540 0c6b 3940 2f18 a040 9323 3440
00000070: 2bd5 223f cf06 3140 985f 2141 48e3 6940
00000080: 3543 423f 2ee3 a43f 4bf6 eb3e 39e8 a140
00000090: 4e4f 1540 ab56 2a41 9d7d 923e 928b 2141
000000a0: 6311 683f 3234 e03d 3a86 2041 557b 343f
000000b0: 273c 1c40 7175 d53f 97ee 543f 9f7c b03e
000000c0: ab61 283f 1662 e13e 7c31 523f 2361 ec40
000000d0: 790e ef40 9b68 0340 4bff ca3f d1a6 993f
000000e0: 8048 9340 1dbd 6440 c06e ab3e eefb 9441
000000f0: 7bb0 3940 8365 1e40 02f3 7340 b75b 923f
00000100: 1500 8440 fc75 3f3f 2b60 c03f 5d56 1941
00000110: 7109 d440 ba95 a440 654a f740 048a 403f
00000120: 1514 893f bc52 f63e 982e a840 d559 1141
00000130: 6f32 bf3f 2134 393e 4b32 0041 1f52 353f
00000140: 87bc c640 bd5a 013f e9d4 6a40 0b34 fd40
00000150: c06c a340 6601 dc3e 2403 d240 5a45 e33d
00000160: 0194 c640 a6f1 c040 6fdc 193f fef7 0b3e
00000170: e34e 9b40 1963 ff40 19c6 bb3e 854f b53e
00000180: 2d58 c43f d459 6640 5645 2640 894d 2441
00000190: 6a40 cb40 eec1 3a40 1909 5a3c 3807 6e40
000001a0: 5ac6 8741 a9a8 d23e 7849 9b40 dd14 a940
000001b0: 096c 063f f3a8 c340 742a a13f f471 7540
000001c0: e690 ee40 49aa 743e 8fe1 a73f 44e0 ee41
000001d0: b058 8240 cf26 d13e c86e 5741 c919 fe3d
000001e0: 9ea8 3e41 e8fc bd3f 7d85 ca3e a872 2a3f
000001f0: 5b70 b73d 138c 2641 9341 2440 f311 9440
0.75904346 0.34817442 12.22458 5.2596307 3.9920886 0.48111284 0.815803 0.3697952
20.023844 1.8568732 0.02951629 8.036102 3.8219428 12.482937 12.390544 0.9824354
0.13689433 14.021032 5.086347 31.292238 8.956889 1.4582615 6.130642 8.791918
7.65995 2.8971586 5.002952 2.8146713 0.6360652 2.7660406 10.085838 3.6544971
0.758838 1.288183 0.46086344 5.0595975 2.3329654 10.646159 0.2861146 10.096575
0.9065153 0.109474555 10.03277 0.7050069 2.4411714 1.6676465 0.8317656 0.34470078
0.6577403 0.44020146 0.8210676 7.3868575 7.4705167 2.0532596 1.5859159 1.2004033
4.6026 3.5740426 0.33482933 18.623013 2.9013965 2.4749458 3.811707 1.1434239
4.12501 0.74789405 1.5029348 9.583585 6.6261525 5.143277 7.7278314 0.75210595
1.0709254 0.48109996 5.2556877 9.084432 1.4937266 0.18086292 8.012279 0.7082843
6.2105136 0.5052908 3.669245 7.912603 5.107025 0.42969817 6.5628834 0.11097212
6.205567 6.029498 0.6010198 0.1366882 4.8533797 7.980847 0.36674574 0.3541223
1.5339409 3.5992327 2.597982 10.2689295 6.351613 2.9180865 0.013307833 3.7191906
16.971851 0.41144302 4.8527184 5.283797 0.525086 6.1143737 1.2591081 3.8350801
7.455188 0.23893084 1.311571 29.859505 4.073326 0.4084992 13.464546 0.12407262
11.916166 1.4842806 0.39554968 0.665812 0.08956977 10.409198 2.5665023 4.627191
